Chatbot/data.pth (torch, 16881 bytes, 6 tensors)

l1.weight f4 [8, 280]
0	0x3eef6793	0.46758708
1	0xbea4fae1	-0.32222655
2	0xbb976596	-0.0046202643
3	0x3f02e8b1	0.5113631
4	0xbe44d847	-0.19223128
5	0xbf54c64c	-0.83115077
6	0xbefc3ab8	-0.4926355
7	0xbf165486	-0.5872272
8	0x3f1290bb	0.5725209
9	0x3fa534cd	1.2906739
10	0xbf34bd6c	-0.70601535
11	0xbe733357	-0.23750053
12	0x3f9b84de	1.2149923
13	0x3f6097fb	0.87731904
14	0xbeab6ce8	-0.33481526
15	0xbe8a089f	-0.26959702
16	0xbee537a0	-0.44769
17	0x3f93ddb5	1.1552035
18	0xbe219797	-0.15780483
19	0xbde7b886	-0.11314492
20	0xbe2ae222	-0.16687825
21	0x3d8a9890	0.0676738
22	0x3ee5193a	0.4474581
23	0xbdae59b4	-0.08513203
24	0xbe139082	-0.14410594
25	0x3f486007	0.78271526
26	0x3e9f45bc	0.3110789
27	0x3d92514e	0.07144414
28	0xbe1e5c8e	-0.15464994
29	0xbf118d9e	-0.56856716
30	0x3d55bc64	0.052181616
31	0xbba6be9f	-0.005088642
32	0x3d831339	0.06400151
33	0xbe82f47e	-0.25577158
34	0xbec08dfe	-0.3760833
35	0xbe9abf92	-0.30224282
36	0x3fb6bcb9	1.4276344
37	0xbf24051a	-0.64070284
38	0x3f26d6dc	0.651716
39	0xbecbcb22	-0.39803416
40	0x3ecfd4ed	0.40592137
41	0x3f947549	1.1598293
42	0xbe9fff0c	-0.31249273
43	0x3f52f658	0.8240714
44	0xbec9f132	-0.3944183
45	0x3e604a57	0.21903358
46	0xbeab2f66	-0.334346
47	0x3f0a670d	0.54063493
48	0xbe07f08b	-0.13275354
49	0x3d963a66	0.07335357
50	0xbecc0340	-0.3984623
51	0xbf23346b	-0.6375186
52	0xbce45f6c	-0.027877532
53	0xbe6b6b0a	-0.22990051
54	0x3e1dbea3	0.15404753
55	0x3dfa41e9	0.122196026
56	0xbf0de18e	-0.55422294
57	0xbe83878a	-0.25689346
58	0xbe3f7d31	-0.187001
59	0x3f9a32d2	1.2046759
60	0xbc31dc9b	-0.010855819
61	0xbecb2626	-0.39677542
62	0xbf7c0ddb	-0.9845864
63	0x3f3bafe6	0.73315275
64	0xbd5a9bf8	-0.0533714
65	0xbb957360	-0.004560873
66	0x3d8034e3	0.06260087
67	0x3f6420b1	0.89112383
68	0x3e42faa8	0.1904093
69	0x3e849767	0.2589676
70	0x3f41399f	0.7547855
71	0xbf89bd47	-1.0760888
72	0x3f388188	0.7207265
73	0xbf10c4a5	-0.56550056
74	0xbf2ac425	-0.6670554
75	0xbe82f3c9	-0.25576618
76	0xbf43b3d7	-0.7644629
77	0xbeedd453	-0.46451053
78	0xbeb4481c	-0.35211265
79	0xbf03b5bb	-0.51449174
80	0xbf8122be	-1.0088727
81	0xbedce24c	-0.431414
82	0x3f6b528a	0.9192282
83	0x3fa5cb88	1.2952738
84	0x401328a5	2.2993557
85	0xbef36a92	-0.47542244
86	0xbf50456e	-0.8135594
87	0xbe93e640	-0.28886604
88	0x3b51af8b	0.00319955
89	0x3f055e01	0.52096564
90	0xbe3092f1	-0.17243554
91	0x3d5f9eed	0.054594923
92	0xbd402535	-0.046910483
93	0x3e7af003	0.2450562
94	0xbf617b69	-0.88078934
95	0xbf4915b1	-0.78548723
96	0x3ede413f	0.43409154
97	0xbe2b7711	-0.16744639
98	0xbdb6b1d5	-0.089206375
99	0xbbc711f7	-0.0060751396
100	0x3f90a613	1.1300682
101	0xbe93f255	-0.28895822
102	0x3fbc8333	1.4727539
103	0x3f3cc75e	0.7374171
104	0xbe6ac923	-0.2292829
105	0xbcf7039a	-0.030153085
106	0xbf2a91e3	-0.66628855
107	0xbf5dfa3b	-0.86709946
108	0xbf04ad49	-0.5182691
109	0xbf516d24	-0.8180716
110	0xbe22b634	-0.15889817
111	0xbebf33b7	-0.37344143
112	0xbce8b121	-0.028404774
113	0x402c9867	2.696802
114	0xbed0f4cc	-0.40811765
115	0xbece6315	-0.4030997
116	0xbe753432	-0.23945692
117	0xbdb83e5a	-0.089962676
118	0xbf12c2fe	-0.57328784
119	0x3ca58d99	0.02020912
120	0x3f9a2fd5	1.2045847
121	0x3f9b1138	1.211463
122	0x3f99e7c4	1.2023854
123	0xbf442a83	-0.7662737
124	0xbe8cecad	-0.2752432
125	0xbe04d042	-0.12970069
126	0xbeaae2e2	-0.33376223
127	0x3ef066ee	0.4695353
128	0x40295e5f	2.646385
129	0xbe88f681	-0.26750568
130	0x3f5a9ac6	0.85392416
131	0x4033eea8	2.8114414
132	0x3f167b8d	0.58782274
133	0x3f0a409e	0.5400485
134	0xbfd07d3a	-1.6288216
135	0x3ddcce2e	0.10781513
136	0x3db552ef	0.08853709
137	0xbe9a79df	-0.30171105
138	0x3e25138d	0.1612074
139	0xbf359626	-0.70932233
140	0xbed052b0	-0.40688086
141	0x3eb6e97c	0.3572501
142	0xbf58e84b	-0.8472945
143	0xbf287748	-0.6580701
144	0x3fb2e606	1.3976448
145	0x3f183217	0.5945143
146	0x3dea878b	0.11451634
147	0x3e3da706	0.18520746
148	0xbf187c16	-0.5956434
149	0xbf7286ed	-0.9473713
150	0xbd6df66c	-0.058096334
151	0xbf29761e	-0.6619586
152	0x3cc5214a	0.024063725
153	0xbc5895f5	-0.013219346
154	0x3ffecdde	1.9906576
155	0x3f1eca62	0.6202756
156	0xbe533f42	-0.206296
157	0xbe5cc631	-0.21559979
158	0x3f3f2b4f	0.7467546
159	0x3d2af272	0.04173512
160	0x3f22de6c	0.6362064
161	0xbe072fd7	-0.13201843
162	0xbebb97ee	-0.3663935
163	0xbc5a10c9	-0.013309666
164	0x402f5919	2.739813
165	0x3e9a2449	0.30105808
166	0x3fd9bfd8	1.7011671
167	0xbf2f7890	-0.6854334
168	0xbe822244	-0.25416768
169	0x3f9a883b	1.2072824
170	0x3f0b01e6	0.5429977
171	0xbe8eca95	-0.27888933
172	0x3ed89de9	0.42307976
173	0x3f509510	0.8147745
174	0x3eddf530	0.43351126
175	0x3f5da611	0.8658152
176	0x3e0ccf3f	0.13750933
177	0x3fb02cbe	1.3763654
178	0xbf7d5c3e	-0.98968875
179	0xbf2aa3c0	-0.6665611
180	0xbef875a5	-0.48527256
181	0x3e4158b1	0.1888149
182	0xbf50345a	-0.8132988
183	0xbcd4f4fb	-0.025995722
184	0x3f2af207	0.66775554
185	0xbe18edeb	-0.14934509
186	0x3f39997d	0.7249983
187	0x3f9bb795	1.21654
188	0x3f1b54e3	0.606764
189	0x3fbc2950	1.4700108
190	0x3f72d1f5	0.9485162
191	0xbf6f60c2	-0.93507016
192	0xbf0467e9	-0.51721054
193	0x3f3f1c6e	0.74652755
194	0x3f6d624d	0.9272812
195	0x3e05d344	0.13068873
196	0xbf2b2d6a	-0.6686617
197	0xbec1b7f4	-0.37835658
198	0xbf12ad6d	-0.57295877
199	0x3ba83448	0.0051331855
200	0xbe7d3900	-0.24728775
201	0xbf0fa35f	-0.5610866
202	0xbfb1bb8f	-1.3885363
203	0x3f9cd397	1.2252072
204	0x3a804173	0.000978513
205	0xbeaf4023	-0.3422862
206	0x3d75415e	0.059876792
207	0x3eaf62f2	0.34255177
208	0xbf4803e2	-0.78130925
209	0x3d0e6c94	0.034771517
210	0xbf2a7163	-0.66579264
211	0x3f142e8d	0.5788353
212	0xbe147681	-0.1449833
213	0x3f3790e5	0.71705467
214	0xbd9d11d2	-0.076694146
215	0x3fd7f276	1.6870868
216	0xbe16dbbb	-0.14732258
217	0xbf5178d8	-0.8182502
218	0xbe775311	-0.24152781
219	0x3eb6d0d4	0.35706198
220	0x3f978f0c	1.184053
221	0xbdc54883	-0.09632971
222	0xbe6dabf4	-0.23210126
223	0xbf847f91	-1.035143
224	0xbe989800	-0.29803467
225	0xbc4561c2	-0.012047233
226	0xbf390581	-0.72274023
227	0x3f8dbb93	1.1072868
228	0xbf42cb71	-0.76091677
229	0xbf482b89	-0.7819143
230	0x3de4ccbf	0.11171865
231	0xbf11f0f5	-0.57008296
232	0xbe850ac6	-0.25984782
233	0x3f15caff	0.5851287
234	0xbef6a38d	-0.48171654
235	0xbe245ea9	-0.16051735
236	0x3f3eb0f2	0.7448875
237	0x3f31873c	0.69346976
238	0xbf07b3b2	-0.5300857
239	0xbf36e730	-0.71446514
240	0xbd421d7b	-0.047391396
241	0xbd7a443a	-0.061100222
242	0x3d50a35c	0.05093704
243	0xbe0faff6	-0.14031968
244	0x3ccbc68e	0.024874952
245	0xbe91809d	-0.28418437
246	0xbf150632	-0.5821258
247	0x3ebaa8e5	0.3645698
248	0xbe9d9dfa	-0.3078459
249	0xbdf0c3a0	-0.117560625
250	0xbf8f310e	-1.1186845
251	0xbead72eb	-0.33876738
252	0xbe348fcd	-0.1763298
253	0xbe844670	-0.2583499
254	0xbe3ace47	-0.18242751
255	0x3f0cae11	0.54953104

l1.bias f4 [8]
0	0x3f231030	0.63696575
1	0x3f45c961	0.77260405
2	0x3f9147c2	1.1350024
3	0x3ec22053	0.37915286
4	0x3f0bc836	0.5460237
5	0x3f3eb080	0.7448807
6	0x3f1aa40f	0.60406584
7	0x3f127f82	0.5722581

l2.weight f4 [8, 8]
0	0xbe1e238e	-0.1544325
1	0xbf3c195d	-0.734762
2	0x400e7796	2.226049
3	0xbf8602f8	-1.0469656
4	0x3f6b2b7e	0.9186324
5	0x3fef984b	1.8718351
6	0xbfcc60a9	-1.5966998
7	0xbfb2cd4d	-1.3968903
8	0x3f0627d6	0.52404535
9	0x3ff78fe7	1.934079
10	0x3f9ecfd9	1.240718
11	0xbf4dc19a	-0.8037354
12	0xbfcb4b25	-1.5882307
13	0x3f3d8edb	0.74046105
14	0x3e035ebd	0.12829109
15	0xbf94ffd6	-1.1640575
16	0xbf545900	-0.82948303
17	0x3f07ac0e	0.5299691
18	0x3f53f31f	0.8279285
19	0xc0075781	-2.1147158
20	0x3f1daa88	0.61588335
21	0x3eada9ac	0.33918512
22	0x3fcf9602	1.6217654
23	0x3cc9b218	0.024621055
24	0xbddff558	-0.109354675
25	0xbe3c15e1	-0.18367721
26	0xbcfe49e4	-0.031041093
27	0xbeb948db	-0.36188397
28	0x3dbdd05a	0.092682555
29	0xbe3fa6d8	-0.1871599
30	0xbe978c79	-0.2959936
31	0x3e2baf29	0.16766037
32	0xbf0f33b6	-0.5593828
33	0x3f4b7aef	0.79484457
34	0xbe4c70c6	-0.19964895
35	0xbed42715	-0.41436067
36	0x400bf97d	2.1871026
37	0x3d655fdf	0.055999633
38	0x40181767	2.3764284
39	0x3cf38978	0.029728636
40	0xbf6dac26	-0.928408
41	0xbf9395f5	-1.1530138
42	0x3fb9a508	1.4503489
43	0x3dbd857c	0.09253976
44	0x3f79a54d	0.97517854
45	0xbf45e417	-0.7730116
46	0x3efbd56a	0.4918626
47	0x3f8200a2	1.0156443
48	0xbf7ca7db	-0.9869363
49	0x400f7e9d	2.2421029
50	0x3f2a5f7b	0.6655194
51	0x3ee08df2	0.43858296
52	0x3e69a42e	0.22816536
53	0xbeb5a8a2	-0.3548022
54	0xbfa9b98b	-1.3259748
55	0x40238872	2.555203
56	0x40342ce1	2.8152392
57	0xbee79bde	-0.45236105
58	0xbe1dcd5e	-0.15410373
59	0x400b7736	2.179151
60	0x3ff338cc	1.9001708
61	0x4004f04d	2.0771668
62	0xbf0bcbff	-0.5460815
63	0x3fb5f02b	1.4213918

l2.bias f4 [8]
0	0x3f23617a	0.6382061
1	0x3f7692a4	0.96317506
2	0xbe95f1d9	-0.29286078
3	0xbe64dbaa	-0.2234942
4	0x3f1f15fe	0.6214293
5	0x3f3d88df	0.74036974
6	0xbcf728e2	-0.030170862
7	0x3e1c193d	0.15244003

l3.weight f4 [20, 8]
0	0xc09ef77b	-4.96771
1	0x3f989259	1.1919662
2	0x3f90f6b6	1.132529
3	0xbe9926f6	-0.29912537
4	0x3fc525f5	1.5402209
5	0xc09a7940	-4.827301
6	0x3ea499a9	0.32148483
7	0xc05e996d	-3.4781144
8	0x3fc8460b	1.5646375
9	0x3ded38cc	0.11583099
10	0xbf89e495	-1.0772883
11	0xbe442d96	-0.19158015
12	0xc014425a	-2.3165498
13	0x4014d6d9	2.3256133
14	0xbfe6904d	-1.8012787
15	0xc05e155a	-3.4700532
16	0xc080ea98	-4.028637
17	0xc094967c	-4.6433697
18	0xbfe76187	-1.8076638
19	0xbd46ff72	-0.048583455
20	0x3e8a5273	0.2701603
21	0x3e982a7f	0.29719922
22	0x3ec68070	0.38769865
23	0xbe97526c	-0.2955507
24	0x3f3888a9	0.72083527
25	0xc09d0ec3	-4.908052
26	0xc04acd7f	-3.1687925
27	0x3e7213d9	0.23640384
28	0xbfc604c8	-1.5470209
29	0x3fd025eb	1.6261572
30	0x3eb1b451	0.34707883
31	0xbf126ec1	-0.5720025
32	0xbf7e44bb	-0.99323624
33	0x3f822615	1.0167872
34	0xbf335b06	-0.70060766
35	0x3d12c2c3	0.03583027
36	0xbfc918bd	-1.5710675
37	0x3c82dd45	0.01597465
38	0x3f65e564	0.8980315
39	0xc08e8fcd	-4.455054
40	0x401db9bc	2.4644613
41	0xbf4d56df	-0.8021068
42	0xbdc19379	-0.09451956
43	0x3e916ef0	0.2840495
44	0xbfefa388	-1.8721781
45	0xbe85fd5a	-0.26169854
46	0xc0534970	-3.3013573
47	0x3e0856dd	0.13314386
48	0x3fc10d78	1.5082235
49	0x3ee96722	0.45586497
50	0x3f1bfec1	0.609356
51	0x3dd22dff	0.10262679
52	0xbfe0286b	-1.7512335
53	0xc042134b	-3.0324275
54	0xbd3474cd	-0.044056702
55	0xbfee0999	-1.8596679
56	0x3fa3effc	1.2807612
57	0x3e9bd612	0.3043676
58	0x3f447250	0.7673693
59	0xbc4d461d	-0.012528923
60	0x3e493a29	0.19651093
61	0x3f357e9b	0.7089631
62	0xc0e12636	-7.0359144
63	0xc00cd710	-2.2006264
64	0xc03c5a83	-2.9430244
65	0x3d7973c6	0.060901426
66	0xc090aa3d	-4.520781
67	0xbe3bd2fa	-0.183422
68	0xc039f2e3	-2.9054496
69	0xc08c3c9d	-4.382399
70	0x40060fb1	2.0947077
71	0xbfa43c65	-1.2830931
72	0x400938c8	2.1440907
73	0x3fe8cb53	1.818705
74	0xc055074a	-3.32857
75	0xbe987b72	-0.2978168
76	0xc0840b76	-4.126399
77	0xc0930d04	-4.595339
78	0xc000f09e	-2.014686
79	0xbf321067	-0.6955628
80	0x3fdc355f	1.7203788
81	0xc083ca91	-4.1184773
82	0xc0735168	-3.8018436
83	0xbe827b66	-0.2548477
84	0x3e940071	0.28906587
85	0x401e6cea	2.4753976
86	0xc0ada010	-5.425789
87	0xbe605939	-0.21909036
88	0x3f798a91	0.9747706
89	0xc00d8311	-2.2111247
90	0xbe20fd96	-0.15721735
91	0x3d91713a	0.071016744
92	0xbf4037e1	-0.75085264
93	0xbfb41528	-1.4068956
94	0x3fa2bb90	1.271349
95	0xbfb60b84	-1.4222264
96	0x3eee8767	0.4658768
97	0xc049f052	-3.155293
98	0x3f62caf6	0.88590944
99	0xbea825b3	-0.32841262
100	0x3ce31f55	0.027724901
101	0x3f3cde9d	0.7377718
102	0xbfa08458	-1.2540388
103	0xbfee40eb	-1.8613561
104	0xbdb269f4	-0.08711615
105	0xbf372ea6	-0.71555555
106	0xbcf72012	-0.03016666
107	0x3e3926f3	0.18081264
108	0xbfa8e6c3	-1.3195423
109	0xbf5273ff	-0.82208246
110	0xbef78736	-0.48345345
111	0x3f4a8854	0.7911427
112	0xc0e63dc8	-7.1950417
113	0xbff276be	-1.8942487
114	0xc023394f	-2.5503728
115	0x3e6c7fb8	0.23095596
116	0x3f1abad0	0.60441303
117	0xc0865ffb	-4.1992164
118	0xc0867830	-4.2021713
119	0x3f073be5	0.52825767
120	0xbea9d562	-0.3317061
121	0x3f20c7ee	0.6280507
122	0xbef095d1	-0.469893
123	0x3df289c7	0.11842685
124	0x3f1b8978	0.60756636
125	0xbfb49a46	-1.410958
126	0xbf9294e5	-1.1451689
127	0xbe5d2943	-0.21597771
128	0xc0a1ddf0	-5.058342
129	0xbfa278cf	-1.2693118
130	0xc05c266b	-3.4398448
131	0x3d8ba02b	0.06817659
132	0xbfe57916	-1.7927577
133	0x401e65d6	2.4749656
134	0x3f6ca10b	0.9243323
135	0xbfb9ffca	-1.4531186
136	0xc08b5927	-4.354633
137	0xbf9bdf39	-1.2177497
138	0x3f91cd92	1.139086
139	0x3e68a24d	0.22718163
140	0xbd622e84	-0.055220142
141	0x3f1b3dc3	0.60641116
142	0x3e5504f5	0.20802672
143	0xc03d7d69	-2.9607794
144	0xbf815be0	-1.0106163
145	0x3f2a1d89	0.6645132
146	0x3fbe83d2	1.4883978
147	0xbd898598	-0.06714934
148	0x3f7013e2	0.9378034
149	0xbe1a3ffa	-0.15063468
150	0xbff1b34b	-1.8882841
151	0xc09137c7	-4.5380588
152	0xc0bcd7c0	-5.9013367
153	0xbe889743	-0.26677904
154	0x3f0947e5	0.5362533
155	0x3e1a50e1	0.15069915
156	0xbd98e418	-0.074653804
157	0x4032534b	2.7863338
158	0xc0669135	-3.6026127
159	0xbf885047	-1.0649499

l3.bias f4 [20]
0	0x3f5ac50b	0.85456914
1	0x3f084db7	0.53243583
2	0xbfaa9e8c	-1.3329635
3	0xbf5e835b	-0.8691918
4	0xbe8e2b22	-0.27767283
5	0xbfda4f2c	-1.7055411
6	0xbf82d885	-1.0222327
7	0x3eee1c25	0.46505848
8	0xbff36a2e	-1.9016778
9	0xbf029801	-0.5101319
10	0x3f37ec6f	0.71845144
11	0xbffa5f13	-1.9560264
12	0xbf65821f	-0.89651674
13	0xbdba3a03	-0.09093096
14	0xbff10e0b	-1.883241
15	0x3e393e8a	0.18090263
16	0x3e7cd1e7	0.24689446
17	0xbf1fb0ee	-0.6237935
18	0xbefadf4d	-0.4899849
19	0x3edea498	0.4348495
